irit.madras.gama.gampy/models/GamPy Skill/includes/iris.onnx (onnx, 1399 bytes, 6 tensors)

hidden1.weight f4 [10, 4]
-1.0776498 -1.1116781 -0.36921763 0.46814287 0.22919703 -1.1397036 -0.13249314 0.011049986
-0.34952003 -0.045749784 0.025058746 0.56565416 -0.24726868 -0.9645331 -0.88189626 -0.79111445
-0.9426991 -0.4888993 0.8346559 0.40879953 -0.8285196 -1.1671973 1.8437315 2.167558
-0.36578017 0.30627382 -0.7833098 0.80530083 -0.4462362 -0.83565176 -0.20655382 0.6242753
-0.51716477 0.2806362 -0.7933198 -0.002969265 -1.0379907 0.012967348 -0.4085062 0.40474153
00000000: 6ef0 89bf 784b 8ebf 180a bdbe 6cb0 ef3e
00000010: a0b2 6a3e cfe1 91bf 48ac 07be 000b 353c
00000020: 4af4 b2be 2064 3bbd 0048 cd3c b6ce 103f
00000030: 0034 7dbe a4eb 76bf f4c3 61bf 7a86 4abf
00000040: ba54 71bf 0251 fabe 02ac 553f 2c4e d13e
00000050: dc19 54bf b966 95bf 65ff eb3f 45b9 0a40
00000060: 8a47 bbbe eccf 9c3e fe86 48bf 3228 4e3f
00000070: 1279 e4be 46ed 55bf d882 53be 82d0 1f3f
00000080: e964 04bf 8caf 8f3e 0217 4bbf 0098 42bb
00000090: e1dc 84bf 0075 543c ba27 d1be 483a cf3e

hidden1.bias f4 [10]
-0.24549574 -0.48479158 0.23661935 0.25129312 -0.465613 -0.19333333 0.16586107 0.28813767
0.40775776 -0.3847878
00000000: 3c63 7bbe 9a36 f8be 584c 723e 7ea9 803e
00000010: d464 eebe 2cf9 45be 7cd7 293e c886 933e
00000020: a0c5 d03e e802 c5be

hidden2.weight f4 [8, 10]
-0.057047367 -0.55228937 0.14272016 -0.12214351 0.37657726 -0.20477508 0.23816621 -0.3328224
0.22911334 -0.27338296 0.43623948 -0.63172996 0.41528416 0.3122418 -0.3082401 1.6598057
-0.48132128 -0.15305191 -0.33416808 -0.17589945 -0.04141724 0.58379483 0.023562908 0.06098807
0.022258818 0.8535599 0.27701497 -0.40128946 0.6521404 -0.34907818 0.68472767 0.2603886
-0.6003814 -0.39416033 -0.119454205 0.5778611 -0.6564282 0.2582662 -0.051175892 -0.08986473
0.3316449 0.1715132 0.53489697 0.1900146 0.25495148 1.4150989 0.62197125 -0.6060288
-0.64915526 0.7621566 -0.5643016 -0.03073293 0.07186365 0.32942474 0.29991972 0.69037783
0.0023636818 0.07237089 0.27183414 0.08069199 -0.3634792 -0.16967684 -0.7644764 -0.3782697
-0.15264559 1.2727479 0.56848466 -0.058532298 0.42986047 0.5122856 -0.031868637 -0.28816527
-0.5791006 -0.24021137 0.2138071 -0.5816961 0.05330181 -0.61929107 -0.4137124 -0.6465783
00000000: 80aa 69bd d662 0dbf 3c25 123e 6026 fabd
00000010: bcce c03e 8fb0 51be d8e1 733e b367 aabe
00000020: b09c 6a3e daf8 8bbe c85a df3e 0eb9 21bf
00000030: 20a0 d43e 28de 9f3e a5d1 9dbe 8374 d43f
00000040: be6f f6be a4b9 1cbe 1418 abbe fc1e 34be
00000050: 20a5 29bd 9473 153f 0007 c13c a0ce 793d
00000060: 2058 b63c e782 5a3f e8d4 8d3e d075 cdbe
00000070: acf2 263f 60ba b2be 504a 2f3f a851 853e
00000080: 98b2 19bf 62cf c9be 68a4 f4bd b4ee 133f
00000090: ae0b 28bf 783b 843e d09d 51bd 000b b8bd
000000a0: 5ccd a93e 28a1 2f3e 02ef 083f 3093 423e
000000b0: 0089 823e f621 b53f 8239 1f3f b424 1bbf
000000c0: 0a2f 26bf b21c 433f 1276 10bf a0c3 fbbc
000000d0: 402d 933d 5caa a83e 148f 993e 9abc 303f
000000e0: 00e8 1a3b 3037 943d d82d 8b3e d841 a53d
000000f0: f219 babe c4bf 2dbe bab4 43bf 91ac c1be
00000100: 204f 1cbe 67e9 a23f 3688 113f 90bf 6fbd
00000110: ac16 dc3e 2625 033f b088 02bd 668a 93be
00000120: f03f 14bf f8f9 75be 40f0 5a3e 09ea 14bf
00000130: 0053 5a3d dc89 1ebf 1dd2 d3be 2886 25bf

hidden2.bias f4 [8]
0.53013164 -0.0006868503 -1.8991134 -1.2711078 -0.0016980611 0.88542163 -1.9854664 -0.013638503
00000000: b5b6 073f be0d 34ba 2616 f3bf a9b3 a2bf
00000010: 7a91 deba feaa 623f c323 febf 0774 5fbc

hidden3.weight f4 [3, 8]
0.54381895 -1.1927752 -0.52345777 0.051985346 -0.87143207 0.9349859 -0.9284023 -0.36136875
-0.49870297 1.2385393 -1.666314 -1.0266025 1.1810154 0.66770893 -0.94913656 -0.46997318
0.11630119 0.66901314 1.1283454 0.80221134 0.30709067 -0.3050455 1.90374 0.14935814
00000000: b837 0b3f dcac 98bf 5401 06bf 96ee 543d
00000010: 2c16 5fbf 3c5b 6f3f c6ab 6dbf 5305 b9be
00000020: ff55 ffbe 7588 9e3f c749 d5bf b667 83bf
00000030: 832b 973f f9ee 2a3f 9dfa 72bf 53a0 f0be
00000040: 512f ee3d 7244 2b3f 9f6d 903f b95d 4d3f
00000050: fd3a 9d3e ec2e 9cbe c1ad f33f 57f1 183e

hidden3.bias f4 [3]
2.9683423 -0.6817316 -2.6626244
00000000: 52f9 3d40 f685 2ebf 7068 2ac0
